…
            "__________________________________________________________________________________________________\n",
            "Layer (type)                    Output Shape         Param #     Connected to                     \n",
            "==================================================================================================\n",
            "input_1 (InputLayer)            [(None, 32, 32, 3)]  0                                            \n",
            "__________________________________________________________________________________________________\n",
            "conv2d (Conv2D)                 (None, 32, 32, 16)   432         input_1[0][0]                    \n",
            "__________________________________________________________________________________________________\n",
            "batch_normalization (BatchNorma (None, 32, 32, 16)   64          conv2d[0][0]                     \n",
            "__________________________________________________________________________________________________\n",
            "activation (Activation)         (None, 32, 32, 16)   0           batch_normalization[0][0]        \n",
            "__________________________________________________________________________________________________\n",
            "conv2d_1 (Conv2D)               (None, 32, 32, 32)   4608        activation[0][0]                 \n",
            "__________________________________________________________________________________________________\n",
            "batch_normalization_1 (BatchNor (None, 32, 32, 32)   128         conv2d_1[0][0]                   \n",
            "__________________________________________________________________________________________________\n",
            "activation_1 (Activation)       (None, 32, 32, 32)   0           batch_normalization_1[0][0]      \n",
            "__________________________________________________________________________________________________\n",
            "conv2d_2 (Conv2D)               (None, 32, 32, 32)   9216        activation_1[0][0]               \n",
            "__________________________________________________________________________________________________\n",
            "conv2d_3 (Conv2D)               (None, 32, 32, 32)   512         activation[0][0]                 \n",
            "__________________________________________________________________________________________________\n",
            "batch_normalization_2 (BatchNor (None, 32, 32, 32)   128         conv2d_2[0][0]                   \n",
            "__________________________________________________________________________________________________\n",
            "add (Add)                       (None, 32, 32, 32)   0           conv2d_3[0][0]                   \n",
            "                                                                 batch_normalization_2[0][0]      \n",
            "__________________________________________________________________________________________________\n",
            "activation_2 (Activation)       (None, 32, 32, 32)   0           add[0][0]                        \n",
            "__________________________________________________________________________________________________\n",
            "conv2d_4 (Conv2D)               (None, 32, 32, 32)   9216        activation_2[0][0]               \n",
            "__________________________________________________________________________________________________\n",
            "batch_normalization_3 (BatchNor (None, 32, 32, 32)   128         conv2d_4[0][0]                   \n",
            "__________________________________________________________________________________________________\n",
            "activation_3 (Activation)       (None, 32, 32, 32)   0           batch_normalization_3[0][0]      \n",
            "__________________________________________________________________________________________________\n",
            "conv2d_5 (Conv2D)               (None, 32, 32, 32)   9216        activation_3[0][0]               \n",
            "__________________________________________________________________________________________________\n",
            "batch_normalization_4 (BatchNor (None, 32, 32, 32)   128         conv2d_5[0][0]                   \n",
            "__________________________________________________________________________________________________\n",
            "add_1 (Add)                     (None, 32, 32, 32)   0           activation_2[0][0]               \n",
            "                                                                 batch_normalization_4[0][0]      \n",
            "__________________________________________________________________________________________________\n",
            "activation_4 (Activation)       (None, 32, 32, 32)   0           add_1[0][0]                      \n",
            "__________________________________________________________________________________________________\n",
            "conv2d_6 (Conv2D)               (None, 32, 32, 64)   18432       activation_4[0][0]               \n",
            "__________________________________________________________________________________________________\n",
            "batch_normalization_5 (BatchNor (None, 32, 32, 64)   256         conv2d_6[0][0]                   \n",
            "__________________________________________________________________________________________________\n",
            "activation_5 (Activation)       (None, 32, 32, 64)   0           batch_normalization_5[0][0]      \n",
            "__________________________________________________________________________________________________\n",
            "conv2d_7 (Conv2D)               (None, 32, 32, 64)   36864       activation_5[0][0]               \n",
            "__________________________________________________________________________________________________\n",
            "conv2d_8 (Conv2D)               (None, 32, 32, 64)   2048        activation_4[0][0]               \n",
            "__________________________________________________________________________________________________\n",
            "batch_normalization_6 (BatchNor (None, 32, 32, 64)   256         conv2d_7[0][0]                   \n",
            "__________________________________________________________________________________________________\n",
            "add_2 (Add)                     (None, 32, 32, 64)   0           conv2d_8[0][0]                   \n",
            "                                                                 batch_normalization_6[0][0]      \n",
            "__________________________________________________________________________________________________\n",
            "activation_6 (Activation)       (None, 32, 32, 64)   0           add_2[0][0]                      \n",
            "__________________________________________________________________________________________________\n",
            "conv2d_9 (Conv2D)               (None, 32, 32, 64)   36864       activation_6[0][0]               \n",
            "__________________________________________________________________________________________________\n",
            "batch_normalization_7 (BatchNor (None, 32, 32, 64)   256         conv2d_9[0][0]                   \n",
            "__________________________________________________________________________________________________\n",
            "activation_7 (Activation)       (None, 32, 32, 64)   0           batch_normalization_7[0][0]      \n",
            "__________________________________________________________________________________________________\n",
            "conv2d_10 (Conv2D)              (None, 32, 32, 64)   36864       activation_7[0][0]               \n",
            "__________________________________________________________________________________________________\n",
            "batch_normalization_8 (BatchNor (None, 32, 32, 64)   256         conv2d_10[0][0]                  \n",
            "__________________________________________________________________________________________________\n",
            "add_3 (Add)                     (None, 32, 32, 64)   0           activation_6[0][0]               \n",
            "                                                                 batch_normalization_8[0][0]      \n",
            "__________________________________________________________________________________________________\n",
            "activation_8 (Activation)       (None, 32, 32, 64)   0           add_3[0][0]                      \n",
            "__________________________________________________________________________________________________\n",
            "conv2d_11 (Conv2D)              (None, 16, 16, 128)  73728       activation_8[0][0]               \n",
            "__________________________________________________________________________________________________\n",
            "batch_normalization_9 (BatchNor (None, 16, 16, 128)  512         conv2d_11[0][0]                  \n",
            "__________________________________________________________________________________________________\n",
            "activation_9 (Activation)       (None, 16, 16, 128)  0           batch_normalization_9[0][0]      \n",
            "__________________________________________________________________________________________________\n",
            "conv2d_12 (Conv2D)              (None, 16, 16, 128)  147456      activation_9[0][0]               \n",
            "__________________________________________________________________________________________________\n",
            "conv2d_13 (Conv2D)              (None, 16, 16, 128)  8192        activation_8[0][0]               \n",
            "__________________________________________________________________________________________________\n",
            "batch_normalization_10 (BatchNo (None, 16, 16, 128)  512         conv2d_12[0][0]                  \n",
            "__________________________________________________________________________________________________\n",
            "add_4 (Add)                     (None, 16, 16, 128)  0           conv2d_13[0][0]                  \n",
            "                                                                 batch_normalization_10[0][0]     \n",
            "__________________________________________________________________________________________________\n",
            "activation_10 (Activation)      (None, 16, 16, 128)  0           add_4[0][0]                      \n",
            "__________________________________________________________________________________________________\n",
            "conv2d_14 (Conv2D)              (None, 16, 16, 128)  147456      activation_10[0][0]              \n",
            "__________________________________________________________________________________________________\n",
            "batch_normalization_11 (BatchNo (None, 16, 16, 128)  512         conv2d_14[0][0]                  \n",
            "__________________________________________________________________________________________________\n",
            "activation_11 (Activation)      (None, 16, 16, 128)  0           batch_normalization_11[0][0]     \n",
            "__________________________________________________________________________________________________\n",
            "conv2d_15 (Conv2D)              (None, 16, 16, 128)  147456      activation_11[0][0]              \n",
            "__________________________________________________________________________________________________\n",
            "batch_normalization_12 (BatchNo (None, 16, 16, 128)  512         conv2d_15[0][0]                  \n",
            "__________________________________________________________________________________________________\n",
            "add_5 (Add)                     (None, 16, 16, 128)  0           activation_10[0][0]              \n",
            "                                                                 batch_normalization_12[0][0]     \n",
            "__________________________________________________________________________________________________\n",
            "activation_12 (Activation)      (None, 16, 16, 128)  0           add_5[0][0]                      \n",
            "__________________________________________________________________________________________________\n",
            "conv2d_16 (Conv2D)              (None, 8, 8, 256)    294912      activation_12[0][0]              \n",
            "__________________________________________________________________________________________________\n",
            "batch_normalization_13 (BatchNo (None, 8, 8, 256)    1024        conv2d_16[0][0]                  \n",
            "__________________________________________________________________________________________________\n",
            "activation_13 (Activation)      (None, 8, 8, 256)    0           batch_normalization_13[0][0]     \n",
            "__________________________________________________________________________________________________\n",
            "conv2d_17 (Conv2D)              (None, 8, 8, 256)    589824      activation_13[0][0]              \n",
            "__________________________________________________________________________________________________\n",
            "conv2d_18 (Conv2D)              (None, 8, 8, 256)    32768       activation_12[0][0]              \n",
            "__________________________________________________________________________________________________\n",
            "batch_normalization_14 (BatchNo (None, 8, 8, 256)    1024        conv2d_17[0][0]                  \n",
            "__________________________________________________________________________________________________\n",
            "add_6 (Add)                     (None, 8, 8, 256)    0           conv2d_18[0][0]                  \n",
            "                                                                 batch_normalization_14[0][0]     \n",
            "__________________________________________________________________________________________________\n",
            "activation_14 (Activation)      (None, 8, 8, 256)    0           add_6[0][0]                      \n",
            "__________________________________________________________________________________________________\n",
            "conv2d_19 (Conv2D)              (None, 8, 8, 256)    589824      activation_14[0][0]              \n",
            "__________________________________________________________________________________________________\n",
            "batch_normalization_15 (BatchNo (None, 8, 8, 256)    1024        conv2d_19[0][0]                  \n",
            "__________________________________________________________________________________________________\n",
            "activation_15 (Activation)      (None, 8, 8, 256)    0           batch_normalization_15[0][0]     \n",
            "__________________________________________________________________________________________________\n",
            "conv2d_20 (Conv2D)              (None, 8, 8, 256)    589824      activation_15[0][0]              \n",
            "__________________________________________________________________________________________________\n",
            "batch_normalization_16 (BatchNo (None, 8, 8, 256)    1024        conv2d_20[0][0]                  \n",
            "__________________________________________________________________________________________________\n",
            "add_7 (Add)                     (None, 8, 8, 256)    0           activation_14[0][0]              \n",
            "                                                                 batch_normalization_16[0][0]     \n",
            "__________________________________________________________________________________________________\n",
            "activation_16 (Activation)      (None, 8, 8, 256)    0           add_7[0][0]                      \n",
            "__________________________________________________________________________________________________\n",
            "global_average_pooling2d (Globa (None, 256)          0           activation_16[0][0]              \n",
            "__________________________________________________________________________________________________\n",
            "dense (Dense)                   (None, 10)           2560        global_average_pooling2d[0][0]   \n",
            "==================================================================================================\n",
            "Total params: 2,796,016\n",
            "Trainable params: 2,792,144\n",
            "Non-trainable params: 3,872\n",
            "__________________________________________________________________________________________________\n",
…
